Learning/LiMo-learning/_3神经网络的计算/model.pt (torch, 10783 bytes, 4 tensors)

weight f4 [100, 10]
0	0x3ea140eb	0.3149484
1	0xbe8dcb4a	-0.2769416
2	0xbe6760e1	-0.2259555
3	0xbdda32ac	-0.10654196
4	0xbd2e6c10	-0.042583525
5	0x3df65834	0.12028542
6	0x3e21e2a0	0.15809107
7	0x3e0f7f42	0.14013389
8	0x3e00f5b2	0.12593725
9	0xbe8cc85b	-0.2749661
10	0x3e9052c7	0.28188154
11	0x3da28ef0	0.079374194
12	0x3e827f6d	0.25487843
13	0x3e8d3a9b	0.27583775
14	0x3e84f5ad	0.25968686
15	0xbddd5592	-0.10807337
16	0x3e1ff2e8	0.15620005
17	0x3e8b2c2b	0.27182135
18	0xbe8780ae	-0.26465362
19	0xbe19e50c	-0.1502878
20	0xbe3aec47	-0.18254195
21	0xbca40280	-0.020020723
22	0xbe92c5ca	-0.28666526
23	0xbe503def	-0.20336126
24	0x3e6de8a6	0.2323328
25	0xbd4fd570	-0.05074066
26	0xbe8659ee	-0.26240486
27	0x3e89aae7	0.268882
28	0x3d07ee88	0.033186466
29	0x3de81588	0.11332232
30	0x3dd4de08	0.103939116
31	0x3e8bc6e7	0.27300188
32	0xbd7c98c8	-0.06166914
33	0xbe9248c9	-0.28571156
34	0x3e974c4b	0.29550394
35	0xbd45a738	-0.048255175
36	0xbe91d60f	-0.28483626
37	0x3d8c8090	0.06860459
38	0xbe1c5f9c	-0.15270847
39	0x3e3edcfa	0.18638983
40	0x3e42e902	0.19034198
41	0xbbfc6c40	-0.007703334
42	0xbd108d90	-0.035291255
43	0xbe2c6166	-0.1683403
44	0x3cd3cd50	0.025854737
45	0xbe965ac7	-0.29366133
46	0xbdb95b2a	-0.09050591
47	0x3de0cab8	0.109761655
48	0x3ce18f60	0.027534187
49	0x3e59544e	0.21223566
50	0xbc9ad8c0	-0.018902183
51	0xbca22250	-0.019791752
52	0xbce5f650	-0.028071553
53	0x3e87bb25	0.26509967
54	0xbe21c2a6	-0.15796909
55	0x3e51a63a	0.20473567
56	0x3d706358	0.05868849
57	0xbe11f770	-0.14254546
58	0xbe92ed30	-0.28696585
59	0x3d41e348	0.047335893
60	0xbe3d8dc3	-0.18511109
61	0xbe677900	-0.22604752
62	0x3e94095b	0.28913388
63	0xbe0452d8	-0.12922227
64	0x3e19fe58	0.1503843
65	0xbdde7766	-0.10862617
66	0x3e696a4e	0.22794458
67	0xbe67dd68	-0.22643054
68	0x3e26d744	0.16293055
69	0x3dd69e4c	0.104794115
70	0xbe99640f	-0.2995915
71	0xbe5511e2	-0.20807603
72	0x3a8f2200	0.0010920167
73	0xbe30c19d	-0.17261358
74	0xbcc0eca0	-0.023550332
75	0x3e4c7972	0.19968203
76	0xbe9b8af3	-0.30379447
77	0x3d8b1294	0.06790653
78	0x3bf31c80	0.007419169
79	0xbe4b8b57	-0.19877373
80	0x3e47ddbe	0.19518182
81	0xbd371e30	-0.044706523
82	0x3e9f801f	0.31152436
83	0xbde76f62	-0.113005415
84	0x3dc9cb18	0.0985319
85	0x3e31097c	0.17288774
86	0xbd070c78	-0.032970876
87	0xbd32c098	-0.043640703
88	0xbd78d6c0	-0.060751677
89	0x3e44e37a	0.192274
90	0xbe2c0f30	-0.16802669
91	0xbe218610	-0.15773797
92	0x3e656262	0.22400811
93	0xbe4f0a0e	-0.2021868
94	0xbd90a81c	-0.07063314
95	0xbe2ff98f	-0.17185043
96	0xbc8c3650	-0.017115742
97	0x3d264bb8	0.040599555
98	0x3e29fa46	0.16599378
99	0x3e8d9763	0.2765456
100	0xbd19b608	-0.037527114
101	0x3e9fd771	0.31219056
102	0xbe3efa76	-0.18650231
103	0xbe9f6332	-0.31130368
104	0x3bd8bd40	0.0066143572
105	0xbdf6b8c4	-0.1204696
106	0x3e9ffd61	0.31248
107	0x3e4175c2	0.18892577
108	0x3e87c4b3	0.26517257
109	0xbe5df346	-0.21674833
110	0xbcffb870	-0.031215876
111	0x3cdaed20	0.026724398
112	0x3dab041c	0.08350393
113	0xbbf548c0	-0.007485479
114	0x3e62ee92	0.2216132
115	0xbe2d871d	-0.16946073
116	0x3d166ee0	0.036726832
117	0xbe49cebc	-0.19707769
118	0xbe803e9a	-0.2504776
119	0xbd07a6d8	-0.0331181
120	0x3d830300	0.063970566
121	0xba707800	-0.0009173155
122	0xbd3876f0	-0.045035303
123	0x3de77e9c	0.11303446
124	0xbe1c9f33	-0.15295105
125	0x3dca25b8	0.098704755
126	0xbe2ba9f7	-0.16764055
127	0xbe27a5bb	-0.16371815
128	0x3e8ed4cd	0.2789673
129	0xbe0928e5	-0.13394506
130	0xbe969a27	-0.29414484
131	0x3e123490	0.14277864
132	0x3d888328	0.06665641
133	0x3d8a5fbc	0.06756541
134	0xbdbcb452	-0.09214081
135	0x3d33aa78	0.043863744
136	0xb7d68000	-2.5570393e-05
137	0xbe938ff2	-0.2882076
138	0x3e584a9e	0.21122214
139	0xbe7c58c2	-0.24643233
140	0x3df224b8	0.1182341
141	0x3e939917	0.28827736
142	0x3e3913b0	0.18073916
143	0xbd0ea798	-0.0348278
144	0xbdedc24c	-0.11609325
145	0xbe15aae6	-0.14615974
146	0x3d595f10	0.053069174
147	0xbe9fa8d7	-0.31183502
148	0x3e193930	0.14963222
149	0x3d8b5ca0	0.06804776
150	0xbe12daa6	-0.1434122
151	0xbe765428	-0.2405554
152	0xbbac4340	-0.0052570403
153	0xbdabaa72	-0.08382119
154	0x3e55a4da	0.20863667
155	0xbe8e8069	-0.27832344
156	0x3e8f64c7	0.28006575
157	0x3d9f5c34	0.07781258
158	0x3dbf2820	0.09333825
159	0xbe708312	-0.234875
160	0x3df65730	0.120283484
161	0x3d53d560	0.051717162
162	0xbc4e6ce0	-0.0125992
163	0x3ddb50e4	0.10708788
164	0xbe7dea28	-0.24796355
165	0x3cda2d30	0.026632875
166	0x3e0f8628	0.1401602
167	0xbc804380	-0.015657187
168	0x3d542f48	0.051802903
169	0x3e3de44e	0.18544123
170	0x3b8d9f40	0.0043219626
171	0x3e48d04e	0.19610712
172	0x3d08c1d8	0.03338799
173	0x3dc6a9d4	0.09700361
174	0x3e0f4580	0.13991356
175	0xbe284c04	-0.16435248
176	0xbe8753c1	-0.26431087
177	0x3df1f054	0.11813417
178	0x3c9c5a70	0.019086093
179	0xbe966364	-0.29372704
180	0xbe9fccfc	-0.31211078
181	0xbe90a10c	-0.2824787
182	0x3e8d47e1	0.27593902
183	0x3dc7eb9c	0.09761736
184	0x3db82bdc	0.089927405
185	0xbdc20e0e	-0.09475337
186	0x3e462552	0.19350174
187	0xbdd3ff30	-0.103514075
188	0xbe25799b	-0.1615967
189	0x3e58dc12	0.211777
190	0xbe82d55e	-0.2555341
191	0xbe06806e	-0.1313493
192	0x3e5e21ee	0.2169263
193	0xbe2fdabf	-0.17173289
194	0xbd09d2c8	-0.033648282
195	0x3e853205	0.26014724
196	0x3e943209	0.28944424
197	0x3d8fdc08	0.070243895
198	0x3e64479a	0.22292939
199	0x3e9b2b6b	0.30306563
200	0x3d17e060	0.037079215
201	0xbe8b347d	-0.27188483
202	0xbe8e4a39	-0.27791002
203	0xbe8ae6b2	-0.27129132
204	0xbe2d32d2	-0.16913918
205	0xbe019b01	-0.12656786
206	0xbc0ee260	-0.008720964
207	0xbdf67146	-0.12033324
208	0x3c90b490	0.017664224
209	0x3e421742	0.18954185
210	0x3e32e522	0.1747022
211	0x3e84f423	0.25967512
212	0xbc8a98b0	-0.01691851
213	0x3dc30b04	0.095235854
214	0x3e10ffdc	0.14160103
215	0x3db3e754	0.08784357
216	0xbe60d76c	-0.21957177
217	0x3e955a89	0.29170635
218	0xbe184a63	-0.14872126
219	0xbe03f8fe	-0.12887952
220	0xbdb2fbaa	-0.08739407
221	0x3e746332	0.23865965
222	0x3e1e0adc	0.1543383
223	0xbe903f59	-0.2817333
224	0x3e10b922	0.14133123
225	0xbe70bb28	-0.23508894
226	0xbe197256	-0.14985022
227	0x3d2079b0	0.03917855
228	0xbda9586a	-0.08268817
229	0x3e89c4c9	0.26907948
230	0xbe65af0e	-0.2243006
231	0x3e97bbd3	0.29635486
232	0x3e551bca	0.20811382
233	0x3ea0d46f	0.31412074
234	0x3e7bd38a	0.24592414
235	0xbe97b33b	-0.2962893
236	0xbe03e46e	-0.12880108
237	0xbd64d950	-0.055871308
238	0xbe086089	-0.13318075
239	0xbe781e06	-0.24230203
240	0x3cfdfa00	0.031002998
241	0x3db071d4	0.08615461
242	0xbe9e5e0d	-0.3093113
243	0xbd67ad08	-0.0565615
244	0x3e80c2bd	0.25148574
245	0xbdf92d20	-0.1216681
246	0xbe9c1f52	-0.30492646
247	0xbd65b6a0	-0.056082368
248	0xbe3c32c3	-0.18378739
249	0xbbafec40	-0.0053687394
250	0x3d9f2a24	0.077717096
251	0xbe8a2cba	-0.2698725
252	0x3e61e1fa	0.2205886
253	0xbdccd132	-0.10000838
254	0xbe956958	-0.29181933
255	0x3e8166f7	0.25273868

bias f4 [100]
0	0xbd04df78	-0.03243968
1	0x3e666976	0.22501168
2	0xbdd60aaa	-0.10451253
3	0x3e30069a	0.17190018
4	0x3d5da5c0	0.05411315
5	0xbc8df6a0	-0.017329514
6	0x3dc15d20	0.0944159
7	0xbd417e70	-0.04723972
8	0x3e73b832	0.23800734
9	0x3dbcb0d8	0.09213418
10	0x3cca29d0	0.02467814
11	0x3e0bc8a2	0.13650754
12	0x3df8cd1c	0.121484965
13	0x3e61568a	0.22005668
14	0xbcf865a0	-0.030321896
15	0xbe08b5ad	-0.13350554
16	0xbe47a53c	-0.19496626
17	0x3e1da602	0.15395358
18	0xbd94a43e	-0.07257889
19	0x3c9918b0	0.01868853
20	0xbe57b3a0	-0.21064615
21	0xbd9203fa	-0.07129665
22	0xbe2dfc7c	-0.16990846
23	0xbdd3d646	-0.10343604
24	0xbe03ec23	-0.12883048
25	0x3e869dab	0.26292166
26	0xbe4c082e	-0.19924995
27	0xbe11b0be	-0.14227578
28	0x3e8dbd75	0.27683607
29	0xbe3f7b12	-0.18699291
30	0xbe9df80c	-0.30853307
31	0x3d1e1eb0	0.038603485
32	0xbdda2ef4	-0.10653487
33	0x3dc7413c	0.09729239
34	0x3d3d8100	0.046265602
35	0xbe1af7a7	-0.15133534
36	0x3d0bc0e0	0.034119487
37	0xbd9e986c	-0.07743916
38	0x3bb39300	0.0054801702
39	0x3e8a6423	0.27029523
40	0xbe60aa08	-0.21939862
41	0x3e4ca3e6	0.19984397
42	0x3d7357b0	0.059409797
43	0x3e72508e	0.23663542
44	0xbd567798	-0.052360147
45	0x3dc198e0	0.09452987
46	0xbe6d7430	-0.23188853
47	0xbe4d3901	-0.20041277
48	0x3e9e9e3d	0.309801
49	0xbde568e0	-0.11201644
50	0x3dfa2860	0.12214732
51	0x3ea10353	0.3144785
52	0xbe2d30df	-0.16913174
53	0xbe9e6240	-0.30934334
54	0x3d8729b4	0.06599751
55	0xbe8df9d2	-0.2772966
56	0xbd273348	-0.04082039
57	0x3e96c86d	0.29449788
58	0x3dd25804	0.10270694
59	0x3e87af41	0.26500896
60	0xbd2ab138	-0.041672915
61	0x3e837fc3	0.25683412
62	0xbda723c6	-0.0816112
63	0x3dd55a50	0.10417616
64	0xbe42498a	-0.18973365
65	0x3e5d0c9e	0.21586844
66	0xbdb904f4	-0.09034148
67	0xbe619107	-0.2202798
68	0x3e75a686	0.23989305
69	0xbe9e8f47	-0.30968687
70	0xbe1211d8	-0.1426462
71	0x3d79bc08	0.060970336
72	0x3e5f2b1e	0.21793792
73	0x3d20b528	0.039235264
74	0x3d10bb50	0.035334885
75	0x3e71ad96	0.23601374
76	0xbd902268	-0.070378125
77	0x3e88bc39	0.26706102
78	0xbe5e1bde	-0.21690318
79	0xbbcffc00	-0.0063471794
80	0x3d212408	0.039341003
81	0x3e24aee8	0.16082346
82	0x3cfd4690	0.030917436
83	0xbe7cc756	-0.24685416
84	0xbd5d8f88	-0.05409196
85	0x3dd141bc	0.10217616
86	0xbd969374	-0.07352343
87	0xbe7040c0	-0.234622
88	0xbe32f4ce	-0.17476198
89	0x3cdcca20	0.02695185
90	0xbdd5a532	-0.10431899
91	0x3e11e958	0.1424917
92	0xbe61b7f2	-0.22042826
93	0xbe7145bf	-0.23561762
94	0x3e5edc6a	0.21763769
95	0x3db81944	0.08989194
96	0xbd474f90	-0.04865986
97	0x3df158d8	0.11784524
98	0x3e8f93f5	0.2804257
99	0xbcbeea70	-0.023305148

weight f4 [10, 100]
0	0xbc5c55a8	-0.013448156
1	0xbd73c877	-0.05951735
2	0xbd8c69be	-0.06856106
3	0xbd649697	-0.055807676
4	0xbcd40ea8	-0.025885895
5	0xbd86bd02	-0.06579019
6	0x3d6a157e	0.057149403
7	0xbb780940	-0.003784731
8	0xbd1dbb03	-0.038508426
9	0x3d8bd587	0.068278365
10	0xbbfec850	-0.007775344
11	0x3d248df6	0.040174447
12	0xbdb57a07	-0.088611655
13	0xbd2c1853	-0.042015385
14	0x3ce747cc	0.028232478
15	0xbccb4cec	-0.024816953
16	0xbc8c60d8	-0.017136022
17	0x3d8a7d11	0.06762136
18	0x3d9f8589	0.07789142
19	0x3d1033d2	0.03520567
20	0xbd81eb2d	-0.06343684
21	0x3da93b15	0.08263222
22	0xbd824d5a	-0.0636241
23	0xbd884f0c	-0.06655702
24	0x3caf23d8	0.021379396
25	0x3c305fc0	0.010765016
26	0x3da428a9	0.08015568
27	0xbcf10e6c	-0.029425822
28	0xbd4d4120	-0.050110936
29	0x3d873c31	0.066032775
30	0x3d9818a1	0.074265726
31	0x3cf98674	0.03045962
32	0x3dc7008f	0.097169034
33	0xbda1fe2d	-0.07909808
34	0x3ca98b54	0.02069632
35	0xbdc20f6a	-0.09475596
36	0x3db6ba8f	0.08922302
37	0xbdafdc28	-0.08586913
38	0xbcff6240	-0.031174779
39	0x3d90db1d	0.070730425
40	0x3cf1dea4	0.029525109
41	0x3d0c347a	0.034229733
42	0x3d7b63c2	0.061374433
43	0x3d3a55ee	0.045492105
44	0xbc8b7c40	-0.01702702
45	0x3d53aab6	0.051676475
46	0xbdc8a0b2	-0.09796275
47	0x3ceae344	0.028672822
48	0xbc4fe9f0	-0.012690052
49	0xbd16447a	-0.036686398
50	0xbd92df0a	-0.071714476
51	0x3cfc0fec	0.03076931
52	0xbb03df60	-0.0020122156
53	0xbd23f230	-0.04002589
54	0x3d9fc275	0.078007616
55	0xbdb6bd1d	-0.08922789
56	0xbcc5128c	-0.024056695
57	0xbdb6b043	-0.08920338
58	0x3cc53b00	0.024075985
59	0xbd187a46	-0.037225984
60	0xbdccc4ed	-0.09998498
61	0xbd12c92c	-0.035836384
62	0xbd4af400	-0.049549103
63	0x3d6c460e	0.057683997
64	0xbd299210	-0.04139906
65	0x3da8d765	0.08244208
66	0x3bf9cba0	0.007623151
67	0x3d8edde1	0.06975914
68	0x3da7ea75	0.08199016
69	0xbd140e0a	-0.0361462
70	0x3d692162	0.056916602
71	0xbdc08722	-0.094007745
72	0x39f21a00	0.00046177208
73	0x3c816b68	0.015798286
74	0x3d71e92a	0.059060253
75	0x3d4a5712	0.049399443
76	0xbd82219c	-0.06354067
77	0xbdb1941b	-0.08670827
78	0xbb5b3640	-0.0033449084
79	0x3d3bd112	0.04585368
80	0x3c65d998	0.014028929
81	0xbd74ebb0	-0.05979508
82	0xbd02a6c4	-0.03189732
83	0xbd63a4ba	-0.055577017
84	0x3cd58ba4	0.026067562
85	0x3daa862b	0.08326372
86	0xbd311000	-0.04322815
87	0x3d841fed	0.06451402
88	0xbd3c8107	-0.046021488
89	0x3ce95134	0.028481103
90	0xbdb6ead0	-0.08931506
91	0xbc98774c	-0.018611573
92	0xbcbe8c58	-0.02326028
93	0xbd9eca23	-0.07753398
94	0xbd400e40	-0.04688859
95	0xbd5c98f7	-0.053856816
96	0x3cefefdc	0.029289179
97	0x3d89fbb7	0.06737464
98	0x388eb800	6.80536e-05
99	0xbc6041d0	-0.013687566
100	0x3c8ca92c	0.017170511
101	0xbaf73a80	-0.0018862039
102	0x3dc84ccf	0.09780275
103	0xbd66a4da	-0.05630956
104	0xbd1c71f0	-0.038194597
105	0x3bd927b0	0.0066270456
106	0xbcf0e948	-0.029408112
107	0x3d0fd4b6	0.035114966
108	0x3d92ffbd	0.071776845
109	0xbcd4a7d4	-0.025958933
110	0xbd407167	-0.04698315
111	0xbcd7b968	-0.026333526
112	0xbd2b0530	-0.041752994
113	0xbc490f68	-0.01227174
114	0x3d751ee6	0.05984392
115	0xbca6f418	-0.020380065
116	0x3d636ade	0.05552184
117	0x3dac2e5b	0.08407279
118	0x3d3731f2	0.044725366
119	0xbd3efd37	-0.046628203
120	0x39d5d500	0.00040785223
121	0x3c0e29d0	0.008676961
122	0xbd006734	-0.031348422
123	0x3daeb891	0.08531297
124	0xbcac4b34	-0.021031953
125	0x3ce59ce4	0.028028913
126	0xbcac01cc	-0.02099695
127	0xbd1d7bd7	-0.03844818
128	0x3d8a15e1	0.06742454
129	0xbdbfdcc7	-0.09368282
130	0x3d9ecf45	0.07754377
131	0x3cb22fc0	0.021751285
132	0x3d286d22	0.041119702
133	0x3dba80dd	0.0910661
134	0xbcee7bb8	-0.029111728
135	0xbca189c8	-0.01971902
136	0xbcfd5be0	-0.030927598
137	0x3d11d0b2	0.035599418
138	0xbac04cc0	-0.0014671311
139	0x3d954d37	0.07290118
140	0x3bd2fcd0	0.006438829
141	0xbd629b00	-0.0553236
142	0xbd717350	-0.05894786
143	0x3db665f3	0.08906164
144	0xbcb96760	-0.0226323
145	0xbc001868	-0.007818319
146	0x3a15e280	0.000571765
147	0x3d1c7552	0.038197823
148	0xbd0fff56	-0.035155617
149	0xbd38b5f0	-0.045095384
150	0xbd907496	-0.07053487
151	0xbdc5b01a	-0.09652729
152	0xbce43308	-0.027856365
153	0x3b580840	0.0032963902
154	0x3c961414	0.01832012
155	0x3d1abc2e	0.03777712
156	0xbd93ef08	-0.07223326
157	0xbd062ef6	-0.03275963
158	0x3b777e40	0.003776446
159	0xbccdf920	-0.025143206
160	0xbb816460	-0.003948733
161	0xbcd4ed00	-0.025991917
162	0x3d82ac17	0.0638048
163	0x3cff7314	0.031182803
164	0xbd7ff770	-0.062491834
165	0xbc0c83b0	-0.008576319
166	0x3d0a7172	0.033799596
167	0x3bb804d0	0.005615808
168	0xbd20b58a	-0.03923563
169	0x3dbe6835	0.0929722
170	0xbcfb61d8	-0.030686304
171	0xbd966b38	-0.07344669
172	0xbcb05cf4	-0.021528699
173	0xbc844e0c	-0.016150497
174	0x3caf8c68	0.021429256
175	0x3dbf52fd	0.09342001
176	0xbdc3b31f	-0.09555649
177	0x3d38b60a	0.04509548
178	0x3c3b6f10	0.011440054
179	0xbc888d20	-0.016668856
180	0x3d25a162	0.04043711
181	0x3d8e4bef	0.06948077
182	0x3d975f1b	0.07391187
183	0x3d8af143	0.06784298
184	0x3dad0de3	0.08449914
185	0xbdb90a3a	-0.09035154
186	0xbc136cb0	-0.008998081
187	0x3d59bc42	0.053158052
188	0xbdb618f2	-0.08891477
189	0xbd691347	-0.05690315
190	0x3b157bc0	0.0022809356
191	0x3b3969a0	0.0028291717
192	0xbd6592a7	-0.05604806
193	0x3d93bdb5	0.07213918
194	0x3dafe91d	0.08589385
195	0xbd07bd8c	-0.03313975
196	0x3d5714a2	0.05250991
197	0xbd968e90	-0.073514104
198	0xbdb24cb8	-0.08706039
199	0xbdb18110	-0.08667195
200	0xbd954162	-0.072878614
201	0x3d18dc56	0.037319504
202	0x3ce9eae4	0.028554387
203	0xba350500	-0.0006905347
204	0xbd0a9100	-0.03382969
205	0x3cfbb05c	0.030723743
206	0xbd2d0ad7	-0.042246666
207	0x3cc1058c	0.023562215
208	0x3d949e7f	0.07256793
209	0xbdc81c7a	-0.097710565
210	0x3d035306	0.0320616
211	0xbd8ac692	-0.067761555
212	0x3d97cfef	0.07412707
213	0xbd7ce26a	-0.061739363
214	0x3d5e96e2	0.05434311
215	0xbbe53e20	-0.0069959313
216	0xbdcbd9bb	-0.09953638
217	0xbc6fd3b0	-0.014637873
218	0x3db80769	0.089857884
219	0x3da1e061	0.07904125
220	0xbd7cf18a	-0.061753787
221	0xbba47900	-0.005019307
222	0x3c424918	0.011858247
223	0xbc4874d0	-0.0122348815
224	0xbd7712d3	-0.060320687
225	0xbd0b60c6	-0.034027837
226	0x3da5eed7	0.08102196
227	0xbd831335	-0.06400148
228	0x3ca29754	0.01984755
229	0xbd18d154	-0.037309006
230	0x3db12687	0.08649927
231	0xbd6af5c7	-0.057363298
232	0xbd79fcb3	-0.06103201
233	0x3d95dbeb	0.07317337
234	0x3cc8a528	0.024492815
235	0x3c237f28	0.009979047
236	0x3d075e92	0.033049174
237	0xbc8562d4	-0.016282476
238	0x3c28c3c0	0.010300577
239	0x3d4125ea	0.0471553
240	0x3c474710	0.012162939
241	0xbd643870	-0.055717885
242	0x3bfcc460	0.0077138394
243	0xbc745230	-0.014912173
244	0x3dacfbf9	0.084464975
245	0x3d738de2	0.059461482
246	0xbd5d1660	-0.053976417
247	0x3d65bfa2	0.05609096
248	0x3db8fd35	0.090326704
249	0x3d812339	0.06305546
250	0xbc217330	-0.009854123
251	0x3d9e2051	0.077210076
252	0x3d304d92	0.043042727
253	0x3c3746f0	0.011186346
254	0x3d305f0a	0.043059386
255	0x3dbea56d	0.09308896

bias f4 [10]
0	0x3c70c980	0.014696479
1	0x3b732b60	0.003710471
2	0x3d875185	0.066073455
3	0xbce84cd4	-0.028356947
4	0xbd0d7ce6	-0.03454294
5	0xbbcea950	-0.0063068047
6	0xbc4a95e8	-0.012364842
7	0x3a0c9b00	0.0005363673
8	0xbd25e490	-0.040501177
9	0xbc86bef8	-0.016448483
